assets/tensorFlow/rice_leaf_model.tflite (tflite, 199536 bytes, 16 tensors)

sequential_2/dense_1/MatMul f4 [5, 64]
-0.1270156 -0.14367114 -0.24049458 0.077781275 0.016218374 -0.07993972 0.053060558 0.0545155
0.28752556 0.20849456 -0.3310836 0.26178056 -0.1359289 0.050736666 -0.21023004 0.2118552
0.107599884 0.04591569 -0.35748464 0.23638757 0.07687949 -0.17795272 0.12054149 0.16961443
0.0069625475 0.24951641 0.036201004 -0.20482802 0.2747554 0.25348625 -0.03131852 -0.02875766
-0.029518388 -0.19415589 0.19365418 -0.05906265 0.19186988 0.027574986 -0.09910254 -0.29711837
-0.25712007 0.26262265 0.07065065 0.114869215 -0.011716256 0.21700321 0.085025355 -0.10537147
-0.16484845 -0.040059116 0.09873102 -0.31899115 -0.1445755 0.25502703 0.2560467 -0.19579051
-0.1512606 0.041822188 -0.09297912 0.16357078 -0.22049893 0.1971653 -0.096711166 0.16441375
-0.08837937 -0.31400546 -0.26905197 0.104509525 0.086636536 -0.09008527 0.1863146 -0.091426544
-0.45512763 0.10312828 0.17117785 0.16092408 0.121856585 0.2700453 0.19318359 -0.3108187
-0.13576333 -0.0026656184 0.0995227 0.13475907 0.2694177 -0.16572078 0.102254294 -0.15459056
0.26805776 -0.20760584 -0.22799404 0.06062147 0.044907738 0.19459629 -0.31708297 -0.17319782
-0.31494698 -0.077527024 0.19003943 -0.25937852 -0.20635886 0.29118448 -0.26935446 0.13760756
-0.14164694 -0.11442477 0.13935702 0.21756914 0.2362187 0.1791936 0.12384849 0.19547394
-0.12928489 0.05331053 -0.21412265 -0.38421002 0.101728186 -0.05800944 0.13945447 0.20425275
0.06707489 -0.068722814 0.099217094 -0.031483546 -0.49973413 -0.41861424 0.17154294 0.21975973
0.19844398 0.13759264 0.14351176 -0.095886834 0.15819754 0.35008183 0.17119673 -0.30270582
-0.45720574 -0.20271295 0.1502217 -0.29936466 0.017015683 0.055558156 0.25796673 -0.027465627
-0.32426915 -0.027225604 0.12313542 0.1932712 0.2631624 -0.28538427 -0.1031329 0.22543705
-0.10074566 0.036700334 0.22409125 -0.04969094 -0.08893706 -0.24247776 0.19828577 0.21879971
-0.2392392 -0.26474404 0.2026742 -0.273479 -0.17111652 -0.21964061 0.1463465 0.21954994
-0.02626847 0.24449773 -0.06582014 0.13382885 0.16870373 -0.30288 0.024666168 0.08222188
-0.092109375 0.26414436 0.3571288 0.34147295 0.027596926 -0.366932 -0.19376539 0.16623238
-0.36507905 0.09866908 0.23811093 -0.027407354 -0.17285378 0.31783187 0.033196297 0.04734164
0.18550268 0.124796316 0.10026559 -0.40493837 0.18099083 -0.2535647 -0.11180693 0.041628648
-0.45304206 0.25706226 0.15038097 0.19568719 0.19904767 -0.31277388 0.008297632 -0.39028582
0.013335099 -0.17818853 0.27211055 -0.18387528 -0.2814436 0.004575439 0.2407701 -0.28099597
-0.023625718 0.16479695 0.024080724 -0.29589048 0.028818034 -0.2368757 -0.046828095 -0.16799647
-0.19587317 -0.19428699 0.22943695 0.18290187 -0.2673184 0.19491148 0.097841695 0.04973827
0.10531927 0.0065936306 0.13658921 -0.35270134 0.20491317 0.048463356 -0.050102927 0.20590797
-0.3031014 -0.16671363 -0.07996107 -0.27066556 -0.11119978 -0.24793018 -0.18220076 0.16958009
0.00063459045 -0.15793084 -0.09919853 0.10025796 0.16744938 -0.34740344 0.18429117 0.05076307
00000000: 6110 02be 871e 13be 3644 76be ca4b 9f3d
00000010: 65dc 843c 70b7 a3bd 0756 593d a54b 5f3d
00000020: 8d36 933e 997f 553e ca83 a9be 1a08 863e
00000030: f230 0bbe 40d1 4f3d 8b46 57be 92f0 583e
00000040: 545d dc3d 1712 3c3d 3a08 b7be 950f 723e
00000050: fe72 9d3d 3d39 36be 75de f63d 68af 2d3e
00000060: 1526 e43b 3b81 7f3e 8147 143d 70be 51be
00000070: bdac 8c3e f3c8 813e d947 00bd 2f95 ebbc
00000080: 8cd0 f1bc cdd0 46be 484d 463e adeb 71bd
00000090: 8a79 443e f0e4 e13c 46f6 cabd e61f 98be
000000a0: 3ea5 83be 7a76 863e 4ab1 903d 8d40 eb3d
000000b0: 8af5 3fbc 1736 5e3e c621 ae3d ffcc d7bd
000000c0: 08ce 28be 0715 24bd 7d33 ca3d cf52 a3be
000000d0: 9a0b 14be e792 823e 8e18 833e 4f7d 48be
000000e0: 0fe4 1abe be4d 2b3d d66b bebd 197f 273e
000000f0: 79ca 61be b3e5 493e 8110 c6bd 145c 283e
00000100: 3e00 b5bd 53c5 a0be 2ec1 89be 1709 d63d
00000110: 7f6e b13d a07e b8bd 41c9 3e3e d73d bbbd
00000120: 7d06 e9be eb34 d33d 3f49 2f3e 48c9 243e
00000130: f28f f93d 6143 8a3e ebd1 453e a123 9fbe
00000140: 8b05 0bbe a8b1 2ebb 8fd2 cb3d 48fe 093e
00000150: 1ef1 893e b5b2 29be b36a d13d fd4c 1ebe
00000160: de3e 893e a096 54be 4577 69be 384e 783d
00000170: 2df1 373d 4044 473e b358 a2be c55a 31be
00000180: bb40 a1be 7dc6 9ebd b299 423e 43cd 84be
00000190: bd4f 53be 2216 953e d4e8 89be ffe8 0c3e
000001a0: e50b 11be 8957 eabd 9bb3 0e3e 72ca 5e3e
000001b0: 51e3 713e 877e 373e 47a4 fd3d 522a 483e
000001c0: 4263 04be 245c 5a3d f842 5bbe 2db7 c4be
000001d0: de56 d03d 4e9b 6dbd 27cd 0e3e a227 513e
000001e0: 8f5e 893d 8cbe 8cbd 5532 cb3d e4f4 00bd
000001f0: 27dd ffbe 9b54 d6be f4a8 2f3e b208 613e
00000200: e634 4b3e 16e5 0c3e bff4 123e 5160 c4bd
00000210: 89fe 213e ed3d b33e 324e 2f3e 42fc 9abe
00000220: df16 eabe fc93 4fbe b8d3 193e 5346 99be
00000230: 7964 8b3c f390 633d 3714 843e 98ff e0bc
00000240: 9b06 a6be 3b08 dfbc 6c2e fc3d e3e8 453e
00000250: 39bd 863e e31d 92be 5837 d3bd f8d8 663e
00000260: be53 cebd 1753 163d 2d78 653e ba88 4bbd
00000270: a224 b6bd 174c 78be 6d0b 4b3e 080d 603e
00000280: 1ffb 74be 888c 87be d389 4f3e 7105 8cbe
00000290: 2b39 2fbe 78e9 60be dbdb 153e b3d1 603e
000002a0: f930 d7bc 9d5d 7a3e b6cc 86bd 6e0a 093e
000002b0: acc0 2c3e 1613 9bbe b410 ca3c f263 a83d
000002c0: d7a3 bcbd ee3d 873e 96d9 b63e 8bd5 ae3e
000002d0: f312 e23c 83de bbbe 6f6a 46be d238 2a3e
000002e0: a4eb babe 0413 ca3d 5ad3 733e 6385 e0bc
000002f0: 9500 31be dcba a23e d7f8 073d 4fe9 413d
00000300: 6af4 3d3e 3695 ff3d 0c58 cd3d 1554 cfbe
00000310: a955 393e 3bd3 81be 08fb e4bd cd82 2a3d
00000320: 21f5 e7be aa9d 833e 78fd 193e 3962 483e
00000330: 27d3 4b3e e623 a0be cbf2 073c 8bd3 c7be
00000340: 767b 5a3c 0e77 36be 1352 8b3e cd49 3cbe
00000350: 6019 90be 90ed 953b 708c 763e b4de 8fbe
00000360: b98a c1bc 88c0 283e f044 c53c f57e 97be
00000370: cc13 ec3c 8b8f 72be d1ce 3fbd 4407 2cbe
00000380: fa92 48be 2bf3 46be 85f1 6a3e a14a 3b3e
00000390: f5dd 88be e096 473e 3a61 c83d 5bba 4b3d
000003a0: a1b1 d73d 620f d83b 0bde 0b3e 4595 b4be
000003b0: c2d4 513e 8381 463d ba38 4dbd 8ad9 523e
000003c0: 1b30 9bbe fab6 2abe a1c2 a3bd ad94 8abe
000003d0: b6bc e3bd 69e1 7dbe d692 3abe 67a6 2d3e
000003e0: a55a 263a 9fb8 21be 9928 cbbd 0c54 cd3d
000003f0: da77 2b3e ddde b1be d3b6 3c3e f0ec 4f3d

sequential_2/dense/BiasAdd/ReadVariableOp f4 [64]
0.012026644 -0.04080253 -0.0008844289 0.13980082 -0.029069778 0.12472217 -0.044393696 -0.066548854
-0.06333132 -0.14550288 0.041144148 -0.12476633 0.007751045 0.08847569 0.16383828 -0.035428833
-0.16698001 -0.051420175 0.045171008 -0.029953219 0.1792227 -0.062487103 -0.114140734 0.050221805
0.065382086 -0.06356702 -0.050637208 -0.0046234373 -0.046016116 -0.013016606 0.12701643 -0.017222114
0.04009111 -0.0005644654 -0.10320112 -0.12526253 -0.059025787 -0.028082319 0.01673306 0.14090054
-0.09112242 -0.06669072 -0.037082482 0.17281197 0.10255421 -0.042046953 0.05805548 -0.034787223
0.1422875 0.18999027 0.03953912 0.2495941 -0.06110622 -0.029790709 -0.01209886 0.08552673
0.067864016 0.07598434 0.031457823 -0.09752705 0.032173302 0.1412592 -0.008801539 -0.05796175
00000000: 670b 453c 8e20 27bd 05d9 67ba f227 0f3e
00000010: be23 eebc 566e ff3d 2ad6 35bd c44a 88bd
00000020: dab3 81bd b5fe 14be c486 283d 7d85 ffbd
00000030: 7afc fd3b be32 b53d 39c5 273e d31d 11bd
00000040: cffc 2abe f69d 52bd 3c05 393d 7460 f5bc
00000050: 2886 373e 7af2 7fbd 9ec2 e9bd 61b5 4d3d
00000060: 0be7 853d 6d2f 82bd f668 4fbd 3480 97bb
00000070: 657b 3cbd 9a43 55bc 9810 023e 6415 8dbc
00000080: 9336 243d a2f8 13ba 1c5b d3bd d244 00be
00000090: 06c5 71bd e40c e6bc c513 893c 3b48 103e
000000a0: 649e babd 2595 88bd cde3 17bd 9ff5 303e
000000b0: f107 d23d 6d39 2cbd 95cb 6d3d 0c7d 0ebd
000000c0: d0b3 113e cf8c 423e c6f3 213d 9995 7f3e
000000d0: 844a 7abd a50b f4bc 4c3a 46bc a328 af3d
000000e0: 4afc 8a3d ad9d 9b3d ebd9 003d 43bc c7bd
000000f0: 27c8 033d 40a6 103e 5534 10bc 4d69 6dbd

sequential_2/dense_1/BiasAdd/ReadVariableOp f4 [5]
-0.08314396 0.06310111 0.12907161 -0.2508638 0.032416455
00000000: 6147 aabd 283b 813d 592b 043e 3871 80be
00000010: 1ec7 043d

sequential_2/conv2d/Relu;sequential_2/conv2d/BiasAdd;sequential_2/conv2d/Conv2D;sequential_2/conv2d/BiasAdd/ReadVariableOp f4 [32, 3, 3, 3]
0.00056957576 0.0001775246 -0.00017721087 0.00030166702 -0.00041200788 5.394305e-05 0.00039333836 -0.00032504182
0.00058936805 0.0005637375 -0.00058376783 0.00030521885 0.0005375762 0.00035848736 0.00060917175 0.00044090048
0.00021512988 -4.118017e-06 0.0003001593 3.5513138e-05 0.0005962683 7.430169e-05 -8.046679e-05 0.0003870682
-6.357925e-05 -0.00012313761 0.00023908303 0.00032074182 -0.0005106606 0.00048243397 0.00041522097 -0.00041709156
-0.0003694397 0.00024507428 2.9164285e-05 0.00013179203 -8.757057e-05 0.000167758 0.00044822582 -0.00014012682
-0.00019522448 -9.8469645e-05 0.000261791 -0.00037040364 -3.4515888e-05 -0.0002684838 -0.0006164693 -0.0003563748
0.00015959825 -0.00010290349 0.0003350936 -0.0005949923 -0.0005090446 -0.00056486705 -0.00023740051 -0.00049185456
0.0002440472 -0.0001389729 -0.00041504018 0.00037513964 0.00030704754 -0.00036508325 -5.831411e-05 -0.00023059662
0.00017940659 0.00034483353 0.00018289652 0.00037255097 0.00035900963 -0.00019257494 0.00028475825 7.429601e-05
-0.0005401873 -0.00043400648 0.00037821254 -0.00045579113 0.00012658216 -0.00048128684 0.0002827412 -0.0005361975
0.0005211851 7.364588e-05 4.742101e-05 -0.000122038226 0.00028613256 -0.00014701262 0.00037303776 0.00030253298
-0.0005149685 0.00039673742 0.00016501949 0.00025579386 -0.00020040986 -0.00044340017 -5.899992e-06 9.407927e-06
-2.9378563e-05 -0.000517448 0.00054133404 -0.00047925653 -0.00064086023 0.0006382158 0.00016183786 -0.0005521629
0.0004980427 0.00048415255 -0.0006488618 -0.0001471944 0.0005928393 -1.5908267e-05 -1.5731408e-05 0.0003221499
0.0003931254 2.0903826e-05 0.00020971605 0.00050366076 0.0005440784 0.000345974 8.422372e-05 0.0005777322
6.957559e-05 0.00021491722 -0.00021853055 -0.00020502522 -0.0006677634 -0.00082290254 0.00018131346 3.841683e-05
-3.1891286e-05 -0.0007170445 -0.0002747058 -0.00053700927 -0.0009901203 -0.00035703543 -0.0003674633 3.7950853e-05
0.00027553414 -0.00031765166 0.00017161308 0.0004494975 -0.00019034106 -0.00037289064 0.0003295743 -0.00027899496
5.341409e-05 0.00017192788 -0.0005750295 0.00030812065 -4.8644975e-05 -0.00014686155 -0.00052214984 0.00046325856
-0.00068900094 0.00032511822 -0.00053005276 -0.00038802865 -0.00046786378 0.00035799964 -0.00019997165 0.00039974958
0.0001681019 0.00021035908 0.00010200674 -7.4324016e-05 0.00025950104 0.00047979076 -0.00048907875 0.00010225125
0.0005875555 -4.7968642e-05 0.00033826797 9.7815406e-05 0.0002031616 -0.00027886906 0.0005205871 -0.00028800842
6.8472604e-05 0.0006900346 -1.9244728e-05 0.00019854418 -0.0005149072 -0.00044051852 -0.00019855905 0.00013454496
0.00038501472 -0.00027357813 0.00049256865 0.0002306588 -0.00014704489 0.00012342891 -0.000818775 0.00038667835
0.00029926444 -0.00064803474 -0.0004891768 0.000118830874 -0.00088846154 -4.769068e-06 0.00022101939 -0.00060277263
-8.7790204e-07 -0.00049995986 -0.0008866443 -0.00011679438 -0.00039707083 -0.0007065788 -0.0006307421 0.00047795285
0.00031880755 0.00045935146 8.3532796e-05 -0.0003768226 0.00037191057 -0.00030891807 -0.0005966968 0.00010312446
-0.0005843298 -0.00037608077 0.00034193936 0.0003210128 0.0003903531 0.00021108224 2.5811723e-05 3.756091e-05
-7.29829e-05 -0.00048708884 -0.00017194836 -0.0003231254 0.00028884693 0.0005604285 0.00067301997 -0.0002442975
-0.00013790402 4.5994813e-05 0.00010164093 0.00013931707 0.00039794992 -0.0004464401 -0.00021208952 0.00045014318
0.0004131008 0.00044323638 0.0006434352 0.00054622954 -5.3112275e-05 2.0075158e-06 -2.1040101e-05 0.00022685487
-0.00015243325 5.6872967e-05 -0.0001688798 -0.00048183042 -4.0097697e-05 -0.0004677798 0.00021542443 0.00038547517
00000000: 954f 153a e625 3a39 aed1 39b9 1029 9e39
00000010: c302 d8b9 e940 6238 fb38 ce39 606a aab9
00000020: d27f 1a3a c9c7 133a ff07 19ba c805 a039
00000030: 21ec 0c3a 5cf3 bb39 d3b0 1f3a a928 e739
00000040: 7d94 6139 7f2d 8ab6 b35e 9d39 f1f3 1438
00000050: e34e 1c3a 6bd2 9b38 47c0 a8b8 6aef ca39
00000060: da55 85b8 801e 01b9 5db2 7a39 3d29 a839
00000070: dadd 05ba 31ef fc39 04b2 d939 15ad dab9
00000080: 5bb1 c1b9 507d 8039 d3a5 f437 a731 0a39
00000090: 17a6 b7b8 32e8 2f39 daff ea39 02ef 12b9
000000a0: 2cb5 4cb9 7d81 ceb8 fe40 8939 bc32 c2b9
000000b0: 27c5 10b8 49c3 8cb9 8e9a 21ba d1d7 bab9
000000c0: d459 2739 e4cd d7b8 80af af39 42f9 1bba
000000d0: 6871 05ba 9613 14ba b7ee 78b9 cdef 00ba
000000e0: ece6 7f39 41b9 11b9 c099 d9b9 64ae c439
000000f0: 39fb a039 a568 bfb9 4d96 74b8 4fcc 71b9
00000100: 171f 3c39 c6ca b439 e9c7 3f39 f252 c339
00000110: 7539 bc39 f1ed 49b9 9b4b 9539 5ecf 9b38
00000120: 5b9b 0dba 5d8b e3b9 d44a c639 40f7 eeb9
00000130: 24bb 0439 3a55 fcb9 e23c 9439 9b8f 0cba
00000140: 24a0 083a 5572 9a38 ece5 4638 c6ee ffb8
00000150: 1004 9639 6627 1ab9 4894 c339 4a9d 9e39
00000160: f3fe 06ba 3201 d039 1509 2d39 121c 8639
00000170: 1d25 52b9 2a78 e8b9 8cf8 c5b6 bdd6 1d37
00000180: fc71 f6b7 59a5 07ba 50e8 0d3a b944 fbb9
00000190: 67ff 27ba f04d 273a 05b3 2939 06bf 10ba
000001a0: 148f 023a dbd5 fd39 6118 2aba 3258 1ab9
000001b0: c668 1b3a be72 85b7 f1f6 83b7 3ae6 a839
000001c0: 661c ce39 a05a af37 39e7 5b39 1a08 043a
000001d0: 7ca0 0e3a d863 b539 44a1 b038 f472 173a
000001e0: 1ce9 9138 675b 6139 5925 65b9 0afc 56b9
000001f0: d80c 2fba 0eb8 57ba f61e 3e39 c221 2138
00000200: 02c3 05b8 0bf8 3bba 6306 90b9 15c6 0cba
00000210: edc6 81ba 7c30 bbb9 17a8 c0b9 6b2d 1f38
00000220: 9175 9039 7c8a a6b9 09f3 3339 88aa eb39
00000230: 4a96 47b9 8980 c3b9 b7ca ac39 1246 92b9
00000240: f108 6038 8a47 3439 94bd 16ba 418b a139
00000250: 2508 4cb8 d9fe 19b9 e2e0 08ba 83e1 f239
00000260: 129e 34ba a174 aa39 3df3 0aba 5370 cbb9
00000270: 9d4b f5b9 e6b1 bb39 7baf 51b9 7b95 d139
00000280: 8344 3039 d693 5c39 74ec d538 67de 9bb8
00000290: a40d 8839 6d8c fb39 8535 00ba b96f d638
000002a0: 2f06 1a3a f031 49b8 8f59 b139 3f22 cd38
000002b0: c707 5539 2c35 92b9 0278 083a d6ff 96b9
000002c0: f398 8f38 70e3 343a bd6f a1b7 4c30 5039
000002d0: d6fa 06ba 65f5 e6b9 4a34 50b9 a314 0d39
000002e0: cddb c939 096f 8fb9 b91f 013a 00dd 7139
000002f0: 1030 1ab9 b26c 0139 0fa3 56ba 17bb ca39
00000300: 98e6 9c39 e0e0 29ba 193c 00ba d734 f938
00000310: a5e7 68ba fb05 a0b6 71c1 6739 6303 1eba
00000320: f8a8 6bb5 bd0f 03ba b16d 68ba 81ef f4b8
00000330: f22d d0b9 b339 39ba 6358 25ba bf95 fa39
00000340: a025 a739 1cd5 f039 542e af38 4690 c5b9
00000350: fefc c239 48f6 a1b9 a56b 1cba 8644 d838
00000360: b62d 19ba b52c c5b9 5346 b339 9c4d a839
00000370: 4ea8 cc39 f555 5d39 4186 d837 b88a 1d38
00000380: 650e 99b8 f55f ffb9 094d 34b9 2869 a9b9
00000390: 6170 9739 b8e9 123a 9b6d 303a 0e15 80b9
000003a0: 549a 10b9 8eea 4038 0f28 d538 a415 1239
000003b0: efa3 d039 2d10 eab9 5964 5eb9 3201 ec39
000003c0: 7395 d839 2e62 e839 35ac 283a d830 0f3a
000003d0: dfc4 5eb8 dcb8 0636 467f b0b7 e4df 6d39
000003e0: 7dd6 1fb9 e28a 6e38 5315 31b9 2f9e fcb9
000003f0: 932e 28b8 5840 f5b9 8ee3 6139 9a19 ca39

sequential_2/conv2d/BiasAdd/ReadVariableOp f4 [32]
-0.08209939 -0.013895279 -0.048809715 -0.063532755 0.008082954 -0.0712099 -0.10607073 0.09736644
-0.07400392 -0.1062328 0.16934027 0.2292909 0.005910026 -0.025533866 0.012942084 0.0048522702
-0.020804511 -0.13992284 0.002715507 -0.10402573 0.10291854 0.024433566 -0.019949645 -0.01177926
0.04509408 0.030180434 -0.0013714554 0.056051623 0.005703635 0.08972834 0.046994694 -0.053147316
00000000: ba23 a8bd 06a9 63bc b2ec 47bd 761d 82bd
00000010: 5e6e 043c 7fd6 91bd 9c3b d9bd 0e68 c73d
00000020: 5e8f 97bd 9590 d9bd 8967 2d3e 3ccb 6a3e
00000030: e4a8 c13b 662c d1bc 090b 543c cbff 9e3b
00000040: 396e aabc ef47 0fbe a6f6 313b 710b d5bd
00000050: f5c6 d23d e728 c83c 706d a3bc ccfd 40bc
00000060: 92b4 383d f53c f73c 68c2 b3ba 6396 653d
00000070: 8fe5 ba3b 7ec3 b73d 827d 403d 00b1 59bd

sequential_2/conv2d_1/BiasAdd/ReadVariableOp f4 [64]
-0.13396502 -0.047422104 -0.06615836 -0.018433813 -0.01888691 -0.019519694 0.030922677 -0.074727505
-0.020854712 -0.021653898 -0.056081716 0.070318595 -0.030839311 -0.03313977 -0.07940957 -0.076715015
-0.030754156 -0.019633554 -0.0418707 -0.009508104 -0.022223445 -0.047890004 -0.039796464 -0.010366516
-0.020798158 -0.03345456 -0.1026813 -0.021318555 0.04530333 -0.05512481 -0.048769128 0.028577657
-0.02811269 0.09632715 -0.029545372 -0.0016576644 0.0012531363 -0.0069737765 -0.013418065 -0.019606423
-0.019480253 0.024943292 0.062002126 -0.104616016 -0.029394131 -0.008335942 -0.017286824 -0.038527887
-0.061140083 -0.010935296 -0.023303153 -0.04398777 -0.007366781 0.11715826 -0.056090645 -0.009979578
-0.024694737 0.017877828 0.026847191 -0.07959358 -0.046255834 -0.051606037 0.022294989 -0.022146497
00000000: 202e 09be ae3d 42bd 097e 87bd 8202 97bc
00000010: b9b8 9abc c4e7 9fbc 8e51 fd3c bc0a 99bd
00000020: 80d7 aabc 8463 b1bc f1b5 65bd 3203 903d
00000030: b9a2 fcbc 91bd 07bd 7ca1 a2bd c31c 9dbd
00000040: 24f0 fbbc 8cd6 a0bc 9c80 2bbd e1c7 1bbc
00000050: f10d b6bc 4f28 44bd 9e01 23bd 52d8 29bc
00000060: e660 aabc a607 09bd 934a d2bd 40a4 aebc
00000070: fc8f 393d 8eca 61bd 23c2 47bd b11b ea3c
00000080: 964c e6bc 2b47 c53d 2309 f2bc fd45 d9ba
00000090: 4740 a43a 4784 e4bb 72d7 5bbc a69d a0bc
000000a0: 0d95 9fbc e055 cc3c f1f5 7d3d ec40 d6bd
000000b0: f6cb f0bc 7a93 08bc 199d 8dbc 6bcf 1dbd
000000c0: 066e 7abd f529 33bc 41e6 bebc 852c 34bd
000000d0: 0a65 f1bb abf0 ef3d 4ebf 65bd 6281 23bc
000000e0: 9e4c cabc 8674 923c a4ee db3c f501 a3bd
000000f0: c276 3dbd da60 53bd fba3 b63c 926c b5bc

sequential_2/conv2d_2/BiasAdd/ReadVariableOp f4 [64]
0.020494226 -0.016669111 -0.01836852 -0.06273101 -0.22262289 -0.027927637 -0.03601212 -0.058210608
-0.059293587 -0.0067930366 -0.037983105 -0.043535654 0.024602942 0.021416051 -0.05567388 0.055109497
0.07498442 0.06740215 -0.067391016 0.06007018 -0.0075676595 -0.08535244 -0.015551648 0.0193672
-0.06599133 -0.08158989 -0.038092174 0.036784638 0.013993909 -0.03694088 -0.07781468 -0.026604341
-0.0148357935 -0.036814995 -0.02066324 -0.04039019 0.021078479 -0.016722199 0.007923466 -0.040119205
0.0044784755 -0.011773153 0.09386749 -0.005105032 -0.016675739 -0.0044638403 0.028194973 -0.036949772
0.04658869 -0.038790837 -0.042954538 -0.0387504 0.029559277 0.058789473 -0.061701294 -0.03643312
-0.04183662 0.02188172 0.0052489713 -0.101957835 -0.07168937 -0.031179098 -0.038978625 -0.028327812
00000000: 82e3 a73c a98d 88bc 9479 96bc 1e79 80bd
00000010: 41f7 63be 80c8 e4bc 7281 13bd 3f6e 6ebd
00000020: d5dd 72bd 1f98 debb 2c94 1bbd 7152 32bd
00000030: 1c8c c93c b770 af3c 4b0a 64bd 7fba 613d
00000040: 6e91 993d 230a 8a3d 4d04 8abd 260c 763d
00000050: 21fa f7bb 43cd aebd 57cc 7ebc f6a7 9e3c
00000060: 7626 87bd 9a18 a7bd 8a06 1cbd 7dab 163d
00000070: b546 653c 524f 17bd 4e5d 9fbd 59f1 d9bc
00000080: d411 73bc 52cb 16bd f545 a9bc 2f70 25bd
00000090: c6ac ac3c fefc 88bc 6dd1 013c 0954 24bd
000000a0: 2dc0 923b 2fe4 40bc 993d c03d 1d48 a7bb
000000b0: 8f9b 88bc 6845 92bb 25f9 e63c a558 17bd
000000c0: c8d3 3e3d 24e3 1ebd 19f1 2fbd bdb8 1ebd
000000d0: 4c26 f23c 3bcd 703d 7fba 7cbd e53a 15bd
000000e0: e05c 2bbd 4b41 b33c 90ff ab3b 45cf d0bd
000000f0: e0d1 92bd 4f6b ffbc 0da8 1fbd ba0f e8bc

sequential_2/conv2d_3/BiasAdd/ReadVariableOp f4 [64]
0.14679685 -0.13048036 0.19281818 0.14384963 0.041412912 0.07316035 -0.034650218 -0.07810526
-0.057325445 -0.04159053 -0.00764981 -0.11917602 -0.0921251 0.02950224 0.07773038 -0.050315574
-0.10640646 -0.06721086 0.059285052 -0.052226808 -0.23576374 -0.08594999 -0.007323277 0.021869354
-0.047628094 0.021896379 0.086627215 -0.06337185 0.17773171 -0.018612202 -0.093258575 0.023739127
-0.053834263 -0.053687878 -0.05615251 -0.03351732 0.008510321 0.08262824 -0.07108959 -0.05469374
-0.07496481 -0.10103203 -0.0830272 -0.06332925 -0.060415316 -0.050384827 -0.07182865 -0.101814374
-0.014285512 0.11753187 -0.062753916 0.03907742 -0.057192642 -0.2525226 -0.006777759 -0.051076476
0.026755646 -0.03496716 0.11492805 -0.04685798 -0.08914889 -0.0772111 -0.11808659 -0.014796461
00000000: ea51 163e a59c 05be 2172 453e 514d 133e
00000010: 96a0 293d 18d5 953d 63ed 0dbd a7f5 9fbd
00000020: 16ce 6abd d55a 2abd 42ab fabb 8f12 f4bd
00000030: 16ac bcbd aeae f13c 1b31 9f3d b417 4ebd
00000040: a1eb d9bd d9a5 89bd e2d4 723d c7eb 55bd
00000050: 0d6c 71be 8c06 b0bd 1af8 efbb 5c27 b33c
00000060: ad15 43bd 0960 b33c 9c69 b13d 1ac9 81bd
00000070: 4dff 353e 9e78 98bc 5afe bebd 8f78 c23c
00000080: 5181 5cbd d2e7 5bbd 2d00 66bd 7549 09bd
00000090: e06e 0b3c ff38 a93d 6b97 91bd 8b06 60bd
000000a0: 2687 99bd e2e9 cebd 2a0a aabd c4b2 81bd
000000b0: 0d76 77bd 5260 4ebd e61a 93bd 0e84 d0bd
000000c0: c80d 6abc 8db4 f03d 2085 80bd a50f 203d
000000d0: d542 6abd a44a 81be f717 debb 9135 51bd
000000e0: a82e db3c ba39 0fbd 665f eb3d 27ee 3fbd
000000f0: b193 b6bd da20 9ebd 62d7 f1bd db6c 72bc

sequential_2/conv2d_4/BiasAdd/ReadVariableOp f4 [64]
-0.008572773 -0.17171948 -0.12685163 -0.06930647 -0.05171062 -0.06680653 0.11554394 -0.008391884
-0.017412413 -0.092782155 -0.1058395 -0.01329511 -0.031730026 -0.011452687 -0.10325248 -0.047248106
0.031672966 -0.16095805 -0.13525504 -0.04151014 0.0043997485 -0.013783723 -0.014636926 0.045984585
-0.15301608 -0.08225801 0.11580928 0.051717587 0.11268958 0.098981015 -0.022880971 -0.06746403
-0.049124498 0.026873449 -0.12076669 -0.2865548 -0.038559765 -0.061576094 -0.06662769 -0.023306211
0.18852146 -0.019889692 0.13702427 -0.013631404 0.13619745 -0.019483335 -0.05325735 -0.020353742
0.114377566 -0.12458255 0.02968383 -0.026873963 -0.023513805 -0.035961967 0.1894014 0.0014510496
-0.052921753 0.099078 -0.038384456 -0.05190064 0.028853964 -0.012139802 0.018782346 -0.045029063
00000000: d174 0cbc 3bd7 2fbe 65e5 01be 8df0 8dbd
00000010: 84ce 53bd ddd1 88bd 4da2 ec3d 1d7e 09bc
00000020: 7aa4 8ebc 9204 bebd 61c2 d8bd bcd3 59bc
00000030: 58f7 01bd 0da4 3bbc 0976 d3bd 3b87 41bd
00000040: 83bb 013d 30d2 24be 4c80 0abe 8906 2abd
00000050: c42b 903b 20d5 61bc b8cf 6fbc 555a 3c3d
00000060: 3fb0 1cbe e376 a8bd 6a2d ed3d d2d5 533d
00000070: cbc9 e63d 8fb6 ca3d e070 bbbc 952a 8abd
00000080: c536 49bd b525 dc3c 8754 f7bd 50b7 92be
00000090: d8f0 1dbd 3737 7cbd 1974 88bd abec bebc
000000a0: c50b 413e b5ef a2bc 1750 0c3e 4156 5fbc
000000b0: 5877 0b3e 849b 9fbc 6124 5abd e4bc a6bc
000000c0: c93e ea3d 2325 ffbd 812b f33c c926 dcbc
000000d0: 06a0 c0bc db4c 13bd 71f2 413e 2531 be3a
000000e0: 7bc4 58bd 68e9 ca3d 0539 1dbd c495 54bd
000000f0: 265f ec3c 05e6 46bc 6fdd 993c 6570 38bd

sequential_2/conv2d_5/BiasAdd/ReadVariableOp f4 [64]
0.2042937 -0.061290458 0.13182169 -0.021116095 0.23247994 -0.012608757 -0.011030741 0.13646553
-0.08101446 -0.038916882 -0.08262955 -0.03307571 0.04004356 0.025610084 -0.037154045 -0.037037976
-0.26768914 -0.17971273 -0.045466147 -0.059717163 -0.028920563 -0.06644393 0.11470049 0.009355006
-0.013712668 -0.13250156 -0.017585536 0.067088604 -0.009343826 -0.07561193 -0.04669095 0.068090975
0.049311418 -0.023726376 -0.07341157 -0.115379676 -0.11117533 -0.13890879 0.2921699 0.045508392
0.06707137 0.14010799 -0.09275194 0.03421997 -0.16660786 0.055659376 0.15749888 0.112207875
0.07002925 -0.07002346 -0.036562126 -0.08936351 -4.0789513e-05 -0.038765427 -0.095046125 -0.03255259
0.031410515 -0.07297347 -0.053794093 0.071927615 0.018936917 -0.009380002 -0.024831712 -0.022231052
00000000: 5e32 513e b40b 7bbd 44fc 063e a9fb acbc
00000010: 390f 6e3e f694 4ebc 48ba 34bc 9fbd 0b3e
00000020: e9ea a5bd 4f67 1fbd ae39 a9bd 657a 07bd
00000030: b704 243d 3dcc d13c d72e 18bd 22b5 17bd
00000040: 8d0e 89be 9d06 38be b63a 3abd fc99 74bd
00000050: d1ea ecbc c113 88bd 17e8 ea3d bd45 193c
00000060: 19ab 60bc 7dae 07be 8b0f 90bc c065 893d
00000070: d916 19bc 6dda 9abd 023f 3fbd 4873 8b3d
00000080: c5fa 493d d15d c2bc ce58 96bd 2e4c ecbd
00000090: e4af e3bd 1b3e 0ebe 4b97 953e 0267 3a3d
000000a0: b75c 893d 7878 0f3e bbf4 bdbd 3d2a 0c3d
000000b0: 409b 2abe 16fb 633d 6347 213e 3ecd e53d
000000c0: 7f6b 8f3d 7668 8fbd 2bc2 15bd 3704 b7bd
000000d0: 6815 2bb8 7fc8 1ebd 8ba7 c2bd dd55 05bd
000000e0: 50a8 003d 1d73 95bd 3257 5cbd c94e 933d
000000f0: 9821 9b3c 94ae 19bc e06b cbbc e51d b6bc

sequential_2/conv2d_1/Conv2D i1 [64, 3, 3, 32]
15 -24 30 22 -41 12 41 50
2 22 -34 -81 14 -20 -5 -13
-14 25 17 35 -25 11 3 7
-5 -3 21 -19 -28 -27 35 19
32 -2 1 -22 6 9 2 127
33 12 -57 -91 60 22 -7 2
20 36 -6 15 -27 20 -15 -8
-27 -11 -6 -51 -51 -27 15 -4
34 10 14 -9 25 17 2 45
1 10 -55 -82 27 6 7 -4
-4 25 8 6 3 20 16 28
-7 -17 26 -54 -55 1 11 -2
32 5 8 13 25 18 8 50
34 4 -53 -90 -66 6 -13 7
-13 29 5 34 -52 16 -6 -11
25 -8 11 -16 23 -37 24 -16
18 23 7 21 46 3 36 80
14 21 -57 -81 -8 -8 -20 15
-9 34 0 20 -21 12 12 13
0 5 10 -43 -2 -10 10 7
0 11 6 -15 77 12 0 89
13 4 -49 -61 36 19 -25 -18
-3 2 -28 35 4 -18 -8 1
7 -30 12 -17 32 -33 5 16
13 13 26 15 49 19 -3 73
15 17 -37 -86 -33 -6 -27 -34
18 -9 -16 27 -20 -8 8 5
-5 -7 9 -45 16 -21 14 -17
9 -8 -13 -4 43 -13 -7 55
12 -10 -42 -63 -20 6 -24 -32
14 -5 -29 2 -6 -14 4 -3
11 -17 20 -6 30 -8 -21 -12
00000000: 0fe8 1e16 d70c 2932 0216 deaf 0eec fbf3
00000010: f219 1123 e70b 0307 fbfd 15ed e4e5 2313
00000020: 20fe 01ea 0609 027f 210c c7a5 3c16 f902
00000030: 1424 fa0f e514 f1f8 e5f5 facd cde5 0ffc
00000040: 220a 0ef7 1911 022d 010a c9ae 1b06 07fc
00000050: fc19 0806 0314 101c f9ef 1aca c901 0bfe
00000060: 2005 080d 1912 0832 2204 cba6 be06 f307
00000070: f31d 0522 cc10 faf5 19f8 0bf0 17db 18f0
00000080: 1217 0715 2e03 2450 0e15 c7af f8f8 ec0f
00000090: f722 0014 eb0c 0c0d 0005 0ad5 fef6 0a07
000000a0: 000b 06f1 4d0c 0059 0d04 cfc3 2413 e7ee
000000b0: fd02 e423 04ee f801 07e2 0cef 20df 0510
000000c0: 0d0d 1a0f 3113 fd49 0f11 dbaa dffa e5de
000000d0: 12f7 f01b ecf8 0805 fbf9 09d3 10eb 0eef
000000e0: 09f8 f3fc 2bf3 f937 0cf6 d6c1 ec06 e8e0
000000f0: 0efb e302 faf2 04fd 0bef 14fa 1ef8 ebf4

sequential_2/conv2d_2/Conv2D i1 [64, 3, 3, 64]
-4 10 20 -9 -13 23 13 8
-7 25 22 -69 -13 15 -12 -5
13 -13 -9 -8 -24 18 27 7
20 -9 7 -7 10 -14 18 -34
-11 -68 -6 -7 5 25 -23 9
11 -4 -8 -15 -1 -26 -18 27
3 -18 -6 9 -5 -58 9 -24
-16 -26 10 13 40 5 1 -19
-1 22 -34 -7 -29 24 -13 -20
-22 14 -5 -64 24 -7 10 -11
26 16 -2 -18 -17 5 9 -15
4 -2 10 9 22 -1 -18 -25
-6 -58 -24 -12 16 -11 11 1
5 15 25 3 32 -15 -27 30
-11 7 5 2 -9 -83 21 -12
3 -31 1 29 11 14 3 20
15 20 10 12 13 -23 -22 2
-3 -16 24 -90 -8 -4 -3 -6
-16 -23 -1 -12 21 19 -3 0
3 -29 -35 13 18 -15 -31 -33
13 -83 -21 -10 -3 -4 23 3
8 7 1 8 14 20 19 20
4 -12 -11 17 25 -67 -9 -16
24 5 -19 18 7 24 -6 -10
-24 -17 -5 16 -21 -11 -32 -29
-2 12 -20 -76 -21 -5 -7 8
-4 -4 -20 16 16 -26 44 24
-9 9 7 25 17 7 -8 -29
-19 -55 -20 21 -10 34 -14 -14
-18 20 -6 -17 29 2 -20 -11
27 18 10 -12 3 -67 13 -39
12 2 19 -11 -11 -16 -20 16
00000000: fc0a 14f7 f317 0d08 f919 16bb f30f f4fb
00000010: 0df3 f7f8 e812 1b07 14f7 07f9 0af2 12de
00000020: f5bc faf9 0519 e909 0bfc f8f1 ffe6 ee1b
00000030: 03ee fa09 fbc6 09e8 f0e6 0a0d 2805 01ed
00000040: ff16 def9 e318 f3ec ea0e fbc0 18f9 0af5
00000050: 1a10 feee ef05 09f1 04fe 0a09 16ff eee7
00000060: fac6 e8f4 10f5 0b01 050f 1903 20f1 e51e
00000070: f507 0502 f7ad 15f4 03e1 011d 0b0e 0314
00000080: 0f14 0a0c 0de9 ea02 fdf0 18a6 f8fc fdfa
00000090: f0e9 fff4 1513 fd00 03e3 dd0d 12f1 e1df
000000a0: 0dad ebf6 fdfc 1703 0807 0108 0e14 1314
000000b0: 04f4 f511 19bd f7f0 1805 ed12 0718 faf6
000000c0: e8ef fb10 ebf5 e0e3 fe0c ecb4 ebfb f908
000000d0: fcfc ec10 10e6 2c18 f709 0719 1107 f8e3
000000e0: edc9 ec15 f622 f2f2 ee14 faef 1d02 ecf5
000000f0: 1b12 0af4 03bd 0dd9 0c02 13f5 f5f0 ec10

sequential_2/conv2d_3/Conv2D i1 [64, 3, 3, 64]
-40 30 2 -93 -31 -3 27 -34
-17 16 71 1 -7 -5 -1 85
-8 -10 24 -87 91 11 4 -43
-19 50 23 -35 -22 20 -34 -6
13 27 25 -8 -23 5 26 4
-35 -13 -15 -7 -12 -6 -12 -31
19 21 10 37 21 20 -26 -18
20 56 3 -54 -5 15 -51 -21
24 33 23 -106 -23 -27 -16 -31
-30 32 36 -16 -1 -22 18 60
30 26 15 -66 46 36 25 11
29 -8 -44 -27 16 -22 -34 -10
-21 8 9 25 -8 25 43 -2
33 30 -78 32 -27 -29 7 -30
0 -13 -29 16 1 14 25 -15
24 24 52 -47 -14 -29 -55 -16
44 32 33 -121 1 16 14 -31
-30 21 21 0 26 32 -15 45
-31 -9 13 -52 79 6 -29 6
11 41 14 -34 10 -32 -26 13
-20 22 -40 3 -36 -20 -34 8
-9 -23 -62 0 12 -99 19 9
-52 -3 33 42 27 -18 -25 -28
-45 34 24 -87 6 24 -50 37
-11 20 25 -66 -10 19 3 -7
-5 -9 -9 28 14 41 14 60
-6 69 39 -96 54 38 1 -21
19 8 -26 -38 -24 -16 -62 -25
3 -6 18 49 -20 8 -73 -21
-3 9 -71 -25 17 -50 -28 -41
-61 22 -3 -21 23 16 -1 -67
-7 40 42 -77 53 -23 -30 42
00000000: d81e 02a3 e1fd 1bde ef10 4701 f9fb ff55
00000010: f8f6 18a9 5b0b 04d5 ed32 17dd ea14 defa
00000020: 0d1b 19f8 e905 1a04 ddf3 f1f9 f4fa f4e1
00000030: 1315 0a25 1514 e6ee 1438 03ca fb0f cdeb
00000040: 1821 1796 e9e5 f0e1 e220 24f0 ffea 123c
00000050: 1e1a 0fbe 2e24 190b 1df8 d4e5 10ea def6
00000060: eb08 0919 f819 2bfe 211e b220 e5e3 07e2
00000070: 00f3 e310 010e 19f1 1818 34d1 f2e3 c9f0
00000080: 2c20 2187 0110 0ee1 e215 1500 1a20 f12d
00000090: e1f7 0dcc 4f06 e306 0b29 0ede 0ae0 e60d
000000a0: ec16 d803 dcec de08 f7e9 c200 0c9d 1309
000000b0: ccfd 212a 1bee e7e4 d322 18a9 0618 ce25
000000c0: f514 19be f613 03f9 fbf7 f71c 0e29 0e3c
000000d0: fa45 27a0 3626 01eb 1308 e6da e8f0 c2e7
000000e0: 03fa 1231 ec08 b7eb fd09 b9e7 11ce e4d7
000000f0: c316 fdeb 1710 ffbd f928 2ab3 35e9 e22a

sequential_2/conv2d_4/Conv2D i1 [64, 3, 3, 64]
-78 -98 -17 4 -53 -109 -51 -35
-4 24 19 -26 -24 42 -61 29
52 -19 -71 -45 -32 -63 -79 -75
-63 39 -81 3 60 20 -57 -22
9 -5 -84 30 44 30 7 4
-81 6 5 -82 -57 18 -47 9
-19 -3 2 -33 -66 -77 26 -41
68 25 10 -23 1 -3 38 26
-8 18 -60 -38 -18 -3 -46 -86
-68 9 -51 28 10 -29 46 -58
22 -61 -30 47 39 35 15 -43
-35 20 2 -64 -60 22 17 4
13 -77 -28 55 -73 -84 -18 -81
-72 53 33 6 21 28 7 -53
-12 -90 -56 -38 -16 20 -52 76
-18 -29 -62 -62 -73 -2 -66 7
-32 -79 -78 -30 -53 7 43 2
44 -37 69 -54 34 53 47 4
-19 -46 35 -24 -69 -6 -42 46
6 -33 -78 9 38 -15 -37 -65
62 -83 -66 -28 -77 -102 -2 -77
-64 -84 -3 -87 57 -35 -85 -35
37 22 -71 -19 65 -32 -24 -35
-73 41 -51 -43 -62 42 17 -53
-15 -23 -10 -90 -58 -2 -68 49
39 -4 47 -28 -92 -57 -60 -45
-32 -78 -45 -54 19 -72 26 10
-84 -46 53 -64 52 -40 52 57
-41 2 -59 -30 -33 -3 11 -5
-14 19 -49 1 -18 49 11 33
-8 1 20 -31 -39 43 57 -21
5 -34 -75 28 -60 -52 12 64
00000000: b29e ef04 cb93 cddd fc18 13e6 e82a c31d
00000010: 34ed b9d3 e0c1 b1b5 c127 af03 3c14 c7ea
00000020: 09fb ac1e 2c1e 0704 af06 05ae c712 d109
00000030: edfd 02df beb3 1ad7 4419 0ae9 01fd 261a
00000040: f812 c4da eefd d2aa bc09 cd1c 0ae3 2ec6
00000050: 16c3 e22f 2723 0fd5 dd14 02c0 c416 1104
00000060: 0db3 e437 b7ac eeaf b835 2106 151c 07cb
00000070: f4a6 c8da f014 cc4c eee3 c2c2 b7fe be07
00000080: e0b1 b2e2 cb07 2b02 2cdb 45ca 2235 2f04
00000090: edd2 23e8 bbfa d62e 06df b209 26f1 dbbf
000000a0: 3ead bee4 b39a feb3 c0ac fda9 39dd abdd
000000b0: 2516 b9ed 41e0 e8dd b729 cdd5 c22a 11cb
000000c0: f1e9 f6a6 c6fe bc31 27fc 2fe4 a4c7 c4d3
000000d0: e0b2 d3ca 13b8 1a0a acd2 35c0 34d8 3439
000000e0: d702 c5e2 dffd 0bfb f213 cf01 ee31 0b21
000000f0: f801 14e1 d92b 39eb 05de b51c c4cc 0c40

sequential_2/conv2d_5/Conv2D i1 [64, 3, 3, 64]
20 7 -49 11 -45 16 19 0
-20 -15 -40 -4 28 30 1 39
39 -37 -19 16 -15 -30 29 10
1 -49 53 -72 43 -58 -30 -18
33 53 -4 19 -36 27 -36 11
-64 26 43 -14 -20 23 -20 22
-3 -14 15 6 -4 -81 52 24
-23 0 1 -41 -7 1 -56 17
4 -25 -65 -10 -50 -8 32 -21
31 -51 -32 -27 -13 21 -9 8
-56 -30 -19 -13 -34 21 7 -12
-86 -20 35 -102 33 -66 -23 -13
70 94 -14 -72 -20 -28 -62 -27
-96 2 -3 -14 -42 18 -28 11
-4 32 15 -15 7 -21 57 52
-36 36 38 12 15 39 -53 31
6 -53 -76 6 -52 -36 28 4
-23 -45 -50 -25 17 -13 8 25
-104 16 -68 11 20 -2 4 -27
-109 -68 20 -27 58 -51 -4 -31
-49 61 -7 -114 -85 -15 -5 23
4 17 51 40 27 -29 8 -9
51 -41 -13 -27 -15 -32 85 -38
-13 32 54 -15 -6 14 -38 -27
-2 -79 -39 -51 -31 8 29 10
21 -67 -25 16 4 -25 -4 36
-46 -17 -53 34 0 33 -26 -23
-58 -51 -53 18 12 -22 29 -3
-1 66 14 -55 -30 22 -1 13
-43 -25 49 -5 10 -37 -22 -38
-34 -2 34 -27 -27 -71 54 22
-21 -36 -15 23 39 11 -18 -35
00000000: 1407 cf0b d310 1300 ecf1 d8fc 1c1e 0127
00000010: 27db ed10 f1e2 1d0a 01cf 35b8 2bc6 e2ee
00000020: 2135 fc13 dc1b dc0b c01a 2bf2 ec17 ec16
00000030: fdf2 0f06 fcaf 3418 e900 01d7 f901 c811
00000040: 04e7 bff6 cef8 20eb 1fcd e0e5 f315 f708
00000050: c8e2 edf3 de15 07f4 aaec 239a 21be e9f3
00000060: 465e f2b8 ece4 c2e5 a002 fdf2 d612 e40b
00000070: fc20 0ff1 07eb 3934 dc24 260c 0f27 cb1f
00000080: 06cb b406 ccdc 1c04 e9d3 cee7 11f3 0819
00000090: 9810 bc0b 14fe 04e5 93bc 14e5 3acd fce1
000000a0: cf3d f98e abf1 fb17 0411 3328 1be3 08f7
000000b0: 33d7 f3e5 f1e0 55da f320 36f1 fa0e dae5
000000c0: feb1 d9cd e108 1d0a 15bd e710 04e7 fc24
000000d0: d2ef cb22 0021 e6e9 c6cd cb12 0cea 1dfd
000000e0: ff42 0ec9 e216 ff0d d5e7 31fb 0adb eada
000000f0: defe 22e5 e5b9 3616 ebdc f117 270b eedd

sequential_2/dense/MatMul i1 [64, 256] scale=0.003960495 zero_point=0
0.035644453 0.06336792 0.04752594 -0.06336792 0.10693336 0.05544693 -0.00792099 -0.1504988
0.099012375 -0.059407424 0.04752594 0.10693336 0.035644453 0.04752594 -0.04752594 -0.0752494
0.08317039 -0.09109138 -0.051486433 -0.24555068 -0.0752494 0.067328416 0.0752494 0.11485435
-0.08713089 0.09109138 0.08317039 -0.1504988 0.1544593 0.051486433 0.003960495 -0.051486433
0.11485435 0.06336792 -0.2297087 0.03168396 -0.027723465 0.099012375 0.04752594 0.071288906
0.13069633 -0.003960495 -0.035644453 0.1623803 0.00792099 -0.09505188 -0.19802475 -0.02376297
-0.13465683 -0.11485435 0.10693336 -0.13069633 0.071288906 -0.02376297 -0.13069633 -0.1544593
-0.13069633 0.051486433 0.01584198 0.071288906 -0.043565445 0.12277534 0.079209894 -0.03168396
-0.102972865 0.05544693 -0.102972865 0.0 0.18218276 -0.019802473 -0.12277534 -0.10693336
0.03168396 0.08317039 0.09505188 -0.09505188 0.027723465 -0.1504988 0.067328416 -0.0752494
0.00792099 -0.08713089 0.011881485 -0.13465683 -0.08713089 0.02376297 -0.13069633 0.1504988
-0.11089386 -0.21386673 -0.10693336 -0.01584198 -0.019802473 -0.019802473 0.06336792 -0.003960495
-0.11485435 -0.12673584 -0.24159019 0.039604947 0.011881485 0.00792099 0.00792099 0.059407424
0.027723465 0.011881485 0.02376297 0.0 0.05544693 0.079209894 -0.102972865 -0.19010375
-0.011881485 -0.071288906 0.035644453 -0.02376297 -0.01584198 -0.11485435 -0.24159019 -0.14653832
-0.071288906 -0.071288906 -0.003960495 -0.1504988 0.035644453 0.051486433 0.08713089 0.02376297
0.011881485 0.059407424 -0.11485435 0.027723465 0.019802473 -0.08713089 -0.099012375 0.043565445
0.03168396 -0.011881485 -0.071288906 0.10693336 -0.051486433 0.01584198 -0.102972865 0.03168396
0.10693336 -0.039604947 0.051486433 -0.13069633 0.079209894 0.011881485 0.079209894 -0.05544693
-0.09109138 -0.17030127 0.071288906 -0.10693336 0.079209894 0.003960495 -0.06336792 0.06336792
-0.06336792 0.11485435 -0.08317039 0.09109138 -0.13861732 -0.03168396 -0.067328416 0.067328416
0.21386673 -0.13069633 -0.08317039 0.11881485 -0.09505188 -0.12277534 0.035644453 -0.079209894
-0.04752594 -0.05544693 -0.01584198 0.10693336 -0.06336792 0.13465683 -0.18218276 -0.1544593
-0.051486433 0.17030127 -0.06336792 0.0 0.04752594 0.08713089 0.099012375 0.12277534
-0.09505188 -0.099012375 -0.099012375 -0.01584198 -0.011881485 0.051486433 -0.13069633 0.11089386
-0.09505188 0.102972865 -0.16634078 -0.043565445 -0.11881485 -0.027723465 0.039604947 0.00792099
0.11485435 -0.15841979 -0.17426178 -0.11485435 0.11485435 0.13069633 -0.11089386 0.01584198
-0.071288906 -0.22574821 -0.11881485 -0.17426178 -0.10693336 -0.01584198 0.13465683 0.011881485
-0.10693336 -0.05544693 -0.02376297 0.18218276 0.099012375 -0.17426178 -0.12673584 -0.019802473
0.102972865 -0.099012375 0.027723465 0.09109138 -0.20198524 -0.20594573 -0.14257781 0.02376297
-0.06336792 -0.16634078 -0.051486433 0.09505188 -0.11485435 0.08713089 -0.14257781 0.071288906
-0.12277534 -0.11881485 0.0752494 -0.13465683 0.079209894 0.09109138 0.04752594 0.099012375
00000000: 0910 0cf0 1b0e feda 19f1 0c1b 090c f4ed
00000010: 15e9 f3c2 ed11 131d ea17 15da 270d 01f3
00000020: 1d10 c608 f919 0c12 21ff f729 02e8 cefa
00000030: dee3 1bdf 12fa dfd9 df0d 0412 f51f 14f8
00000040: e60e e600 2efb e1e5 0815 18e8 07da 11ed
00000050: 02ea 03de ea06 df26 e4ca e5fc fbfb 10ff
00000060: e3e0 c30a 0302 020f 0703 0600 0e14 e6d0
00000070: fdee 09fa fce3 c3db eeee ffda 090d 1606
00000080: 030f e307 05ea e70b 08fd ee1b f304 e608
00000090: 1bf6 0ddf 1403 14f2 e9d5 12e5 1401 f010
000000a0: f01d eb17 ddf8 ef11 36df eb1e e8e1 09ec
000000b0: f4f2 fc1b f022 d2d9 f32b f000 0c16 191f
000000c0: e8e7 e7fc fd0d df1c e81a d6f5 e2f9 0a02
000000d0: 1dd8 d4e3 1d21 e404 eec7 e2d4 e5fc 2203
000000e0: e5f2 fa2e 19d4 e0fb 1ae7 0717 cdcc dc06
000000f0: f0d6 f318 e316 dc12 e1e2 13de 1417 0c19
